…
ScanObject - num_points: 2048, sonn_split: main_split, h5_suffix: objectdataset.h5, split: all, class_choice: {10: 0, 14: 1, 5: 2, 6: 3, 9: 2}, num samples: 788
ScanObject - num_points: 2048, sonn_split: main_split, h5_suffix: objectdataset.h5, split: all, class_choice: {0: 404, 1: 404, 2: 404, 3: 404, 11: 404}, num samples: 847
<All keys matched successfully>
Clf - feature encoder: openshape
Clf Head - num classes: 5, input dim: 1280, act: leakyrelu, dropout: 0.5
Model params count: 33.1153 M
Load weights:  <All keys matched successfully>
Classifier(
  (enco): Projected(
    (ppat): PointPatchTransformer(
      (sa): PointNetSetAbstraction(
        (mlp_convs): ModuleList(
          (0): Conv2d(9, 64, kernel_size=(1, 1), stride=(1, 1))
          (1): Conv2d(64, 64, kernel_size=(1, 1), stride=(1, 1))
          (2): Conv2d(64, 256, kernel_size=(1, 1), stride=(1, 1))
        )
        (mlp_bns): ModuleList(
          (0-1): 2 x BatchNorm2d(64, eps=1e-05, momentum=0.1, affine=True, track_running_stats=True)
          (2): BatchNorm2d(256, eps=1e-05, momentum=0.1, affine=True, track_running_stats=True)
        )
      )
      (lift): Sequential(
        (0): Conv1d(259, 512, kernel_size=(1,), stride=(1,))
        (1): Lambda()
        (2): LayerNorm((512,), eps=1e-05, elementwise_affine=True)
      )
      (transformer): Transformer(
        (layers): ModuleList(
          (0-11): 12 x ModuleList(
            (0): PreNorm(
              (norm): LayerNorm((512,), eps=1e-05, elementwise_affine=True)
              (fn): Attention(
                (attend): Softmax(dim=-1)
                (dropout): Dropout(p=0.0, inplace=False)
                (to_qkv): Linear(in_features=512, out_features=1536, bias=False)
                (to_out): Sequential(
                  (0): Linear(in_features=512, out_features=512, bias=True)
                  (1): Dropout(p=0.0, inplace=False)
                )
              )
            )
            (1): PreNorm(
              (norm): LayerNorm((512,), eps=1e-05, elementwise_affine=True)
              (fn): FeedForward(
                (net): Sequential(
                  (0): Linear(in_features=512, out_features=1536, bias=True)
                  (1): GELU(approximate='none')
                  (2): Dropout(p=0.0, inplace=False)
                  (3): Linear(in_features=1536, out_features=512, bias=True)
                  (4): Dropout(p=0.0, inplace=False)
                )
              )
            )
          )
        )
      )
    )
    (proj): Linear(in_features=512, out_features=1280, bias=True)
  )
  (penultimate): Sequential(
    (0): Linear(in_features=1280, out_features=512, bias=False)
    (1): BatchNorm1d(512, eps=1e-05, momentum=0.1, affine=True, track_running_stats=True)
    (2): LeakyReLU(negative_slope=0.2)
    (3): Dropout(p=0.5, inplace=False)
    (4): Linear(in_features=512, out_features=256, bias=False)
  )
  (head): Sequential(
    (0): BatchNorm1d(256, eps=1e-05, momentum=0.1, affine=True, track_running_stats=True)
    (1): LeakyReLU(negative_slope=0.2)
    (2): Dropout(p=0.5, inplace=False)
    (3): Linear(in_features=256, out_features=5, bias=True)
  )
)
100% 1255/1255 [00:31<00:00, 39.50it/s]
100% 788/788 [00:18<00:00, 42.31it/s]
100% 847/847 [00:20<00:00, 41.38it/s]

################################################################################
Computing OOD metrics with MSP normality score...
AUROC - Src label: 1, Tar label: 0
Src Test - Clf Acc: 0.3346613545816733, Clf Bal Acc: 0.26080671386198157
…
